_________________________________________________________________
Layer (type)                 Output Shape              Param #   
=================================================================
conv3d_1 (Conv3D)            (None, 60, 60, 60, 64)    98368     
_________________________________________________________________
max_pooling3d_1 (MaxPooling3 (None, 30, 30, 30, 64)    0         
_________________________________________________________________
conv3d_2 (Conv3D)            (None, 30, 30, 30, 64)    262208    
_________________________________________________________________
max_pooling3d_2 (MaxPooling3 (None, 15, 15, 15, 64)    0         
_________________________________________________________________
conv3d_3 (Conv3D)            (None, 14, 14, 14, 128)   65664     
_________________________________________________________________
max_pooling3d_3 (MaxPooling3 (None, 7, 7, 7, 128)      0         
_________________________________________________________________
conv3d_4 (Conv3D)            (None, 6, 6, 6, 256)      262400    
_________________________________________________________________
max_pooling3d_4 (MaxPooling3 (None, 3, 3, 3, 256)      0         
_________________________________________________________________
flatten_1 (Flatten)          (None, 6912)              0         
_________________________________________________________________
dense_1 (Dense)              (None, 256)               1769728   
_________________________________________________________________
dense_2 (Dense)              (None, 16)                4112      
_________________________________________________________________
dense_3 (Dense)              (None, 1)                 17        
=================================================================
Total params: 2,462,497
Trainable params: 2,462,497
Non-trainable params: 0
_________________________________________________________________
get following VASP dirs:
/public/home/yangbo1/wangbch/GridNN/Pd_CH_s_fcc_stand.cif
/public/home/yangbo1/wangbch/GridNN/Pd_CH2_s_bridge_stand.cif
Epoch 1/100

 1/22 [>.............................] - ETA: 7:56 - loss: 5049.1079 - mean_squared_error: 5049.1079
…
