_________________________________________________________________
Layer (type)                 Output Shape              Param #   
=================================================================
conv3d_1 (Conv3D)            (None, 60, 60, 60, 64)    131136    
_________________________________________________________________
max_pooling3d_1 (MaxPooling3 (None, 30, 30, 30, 64)    0         
_________________________________________________________________
conv3d_2 (Conv3D)            (None, 30, 30, 30, 64)    262208    
_________________________________________________________________
max_pooling3d_2 (MaxPooling3 (None, 15, 15, 15, 64)    0         
_________________________________________________________________
conv3d_3 (Conv3D)            (None, 14, 14, 14, 128)   65664     
_________________________________________________________________
max_pooling3d_3 (MaxPooling3 (None, 7, 7, 7, 128)      0         
_________________________________________________________________
conv3d_4 (Conv3D)            (None, 6, 6, 6, 256)      262400    
_________________________________________________________________
max_pooling3d_4 (MaxPooling3 (None, 3, 3, 3, 256)      0         
_________________________________________________________________
flatten_1 (Flatten)          (None, 6912)              0         
_________________________________________________________________
dense_1 (Dense)              (None, 256)               1769728   
_________________________________________________________________
dense_2 (Dense)              (None, 16)                4112      
_________________________________________________________________
dense_3 (Dense)              (None, 1)                 17        
=================================================================
Total params: 2,495,265
Trainable params: 2,495,265
Non-trainable params: 0
_________________________________________________________________
get following VASP dirs:
/public/home/yangbo1/wangbch/GridNN/Pt_CH3--OH_N1.xsd_TS_fort_188
/public/home/yangbo1/wangbch/GridNN/Pt_O_fcc.cif
/public/home/yangbo1/wangbch/GridNN/Pt_OH_hcp_new.xsd_normal
…
